dncbm/on_concepts_final_lr0.001_bs512_epo200_nobias_clCE_spL1_spl1.0_cc0.0.pt (torch, 331697 bytes, 1 tensors)

weight f4 [10, 8192]
0	0xb8157d9d	-3.5641355e-05
1	0x374dc5fe	1.2265051e-05
2	0xba4b4bd5	-0.00077551353
3	0x39c18eb1	0.00036918142
4	0xb81c4d13	-3.726508e-05
5	0xbee83912	-0.4535604
6	0xb970e3cd	-0.00022973046
7	0x393e2ed0	0.00018137251
8	0x39835bd8	0.00025054696
9	0x3b0e12c5	0.0021678668
10	0x386c0c39	5.6278168e-05
11	0xb801aa9f	-3.09149e-05
12	0x38d5fdb4	0.00010203887
13	0xb8236909	-3.896005e-05
14	0x393b8472	0.0001788305
15	0xb7974c07	-1.8036006e-05
16	0xb87d40d9	-6.0380295e-05
17	0xb96cdcbd	-0.00022588945
18	0x3a09d64a	0.0005258067
19	0x39ea65b0	0.0004470772
20	0xb8913043	-6.923128e-05
21	0x37d1c973	2.5008549e-05
22	0x392aa8a5	0.00016275288
23	0x387cd6cf	6.0281538e-05
24	0x394bbc93	0.00019429838
25	0x384f2ad5	4.9392536e-05
26	0xb938a8b9	-0.00017610462
27	0xb77bef31	-1.5016457e-05
28	0x37731e5e	1.4490999e-05
29	0x393aed93	0.00017826846
30	0xba2830f2	-0.0006415985
31	0xb8b19698	-8.468068e-05
32	0xb937c6dd	-0.00017526322
33	0x37cf4d41	2.4712297e-05
34	0xb7ea5979	-2.7936638e-05
35	0x3fe9917d	1.8247524
36	0xb9320482	-0.00016977082
37	0x38a42d4a	7.828565e-05
38	0x38ad1050	8.252321e-05
39	0x3945832e	0.00018836252
40	0xb60ebdf3	-2.1270214e-06
41	0xbb249207	-0.0025111453
42	0xb8fc29a3	-0.00012024052
43	0x3913ed60	0.00014107442
44	0xb7388318	-1.0997777e-05
45	0xba540d02	-0.00080890965
46	0x38b91e6c	8.827154e-05
47	0xb9884279	-0.00025989467
48	0xbafe2705	-0.0019390291
49	0x38643682	5.44102e-05
50	0xb98af295	-0.0002650215
51	0xb8fc3088	-0.00012025336
52	0x37d79f68	2.5704227e-05
53	0x3926993b	0.00015888076
54	0xc0aabf31	-5.335839
55	0xb8ecf1fa	-0.000112984286
56	0xb89491b1	-7.084327e-05
57	0x3f9700ba	1.1797097
58	0x3944654c	0.00018729753
59	0xb822af35	-3.8786984e-05
60	0xb8ec423f	-0.00011265696
61	0xb8ad4669	-8.262398e-05
62	0x39889561	0.00026051237
63	0x38974902	7.21384e-05
64	0xb809188b	-3.2686203e-05
65	0xb8ef2cc1	-0.00011404744
66	0xbb468cf5	-0.003029642
67	0xb94e5263	-0.00019676382
68	0xb8881f4b	-6.490814e-05
69	0xb8dd2fb8	-0.000105469895
70	0x3914ee74	0.0001420321
71	0xb8da13cc	-0.000103987375
72	0x3970c205	0.00022960462
73	0x381d4347	3.7494374e-05
74	0x37b340c0	2.1368614e-05
75	0xb77ee61d	-1.5193157e-05
76	0x38687fc3	5.5432098e-05
77	0xb9954796	-0.0002847283
78	0x37171a6c	9.006453e-06
79	0x39de7005	0.000424266
80	0x38cff58a	9.9162644e-05
81	0xb9cd8c3d	-0.00039205133
82	0x3a22d50e	0.0006211557
83	0x3946ec87	0.00018970865
84	0x398085ad	0.0002451366
85	0xbbe6b027	-0.007040042
86	0xb991d64a	-0.00027816213
87	0xb8e622f7	-0.00010973767
88	0xb9015d33	-0.00012337118
89	0x3957a1fd	0.00020564343
90	0x39d84a54	0.0004125411
91	0x36bc00ad	5.6029153e-06
92	0x383845b9	4.3933953e-05
93	0xba03745f	-0.0005014594
94	0x3aa57491	0.001262324
95	0x39bbe327	0.0003583666
96	0xb9c65f95	-0.00037836717
97	0xb60ab1b6	-2.0667044e-06
98	0xb98f2e9e	-0.00027309818
99	0x38d35f2e	0.00010078993
100	0x38a0f0fe	7.674283e-05
101	0x393c4cba	0.0001795766
102	0xb8c372ee	-9.319732e-05
103	0x386ea78c	5.6899662e-05
104	0x3a3de523	0.0007243922
105	0x38a85761	8.02714e-05
106	0xb870e233	-5.7431123e-05
107	0x3f2f9f16	0.6860212
108	0xb816f8d9	-3.5994544e-05
109	0xbb5d0312	-0.0033723754
110	0x383a8c30	4.4476415e-05
111	0xb7c5d0e9	-2.3581511e-05
112	0x38113363	3.461855e-05
113	0xb95943a6	-0.00020719934
114	0xb9943236	-0.0002826617
115	0xba118f67	-0.00055526796
116	0xba51ac53	-0.00079983956
117	0xb9522eff	-0.00020044668
118	0x39391683	0.00017651361
119	0x3882108c	6.201965e-05
120	0x3917e949	0.00014487388
121	0x3984ea0b	0.00025351378
122	0x3990847b	0.00027564526
123	0x3a4e9c52	0.000788157
124	0x3a9f6ea4	0.0012163711
125	0x386eeff1	5.6967085e-05
126	0x3872e79b	5.7912996e-05
127	0xb8d1768d	-9.9879784e-05
128	0xb9ce29ab	-0.00039322427
129	0xb929fe2a	-0.0001621178
130	0xb943cd96	-0.00018673236
131	0x38ae4d15	8.311324e-05
132	0xb9344174	-0.00017190521
133	0xb8213cfe	-3.8442195e-05
134	0xb8a0c739	-7.666503e-05
135	0x39a11a6c	0.00030728
136	0xb987d74d	-0.00025909618
137	0xbac4d372	-0.0015016629
138	0x38b363b5	8.553957e-05
139	0xb8a1cb72	-7.714973e-05
140	0xb94db1e4	-0.00019616593
141	0x38933216	7.0188355e-05
142	0xb68f6769	-4.2737706e-06
143	0xb7ff259b	-3.041588e-05
144	0x3750e903	1.2452018e-05
145	0xb93d86c4	-0.00018074649
146	0xbfd46ee7	-1.6596345
147	0xba120093	-0.00055695436
148	0x38c8539a	9.552315e-05
149	0x3897cbdf	7.238215e-05
150	0x3a643604	0.0008705559
151	0xb9e724be	-0.00044087128
152	0x3a42805c	0.000741964
153	0xb93f4579	-0.0001824106
154	0xb99c2232	-0.00029780116
155	0x37470d82	1.1864469e-05
156	0xb8c23db7	-9.262136e-05
157	0x399a99aa	0.00029487658
158	0xbf6a3ffb	-0.91503876
159	0xb985a535	-0.00025490826
160	0x3e512da6	0.2042757
161	0xb90c22e3	-0.00013364437
162	0x395893a6	0.00020654369
163	0x39b6546e	0.0003477665
164	0x395748f7	0.0002053118
165	0xb8cfe4d0	-9.913149e-05
166	0x39371b5f	0.00017462437
167	0x389a5019	7.3582116e-05
168	0xb8f08052	-0.00011467993
169	0xb905c84e	-0.00012758488
170	0x394521b6	0.00018799942
171	0xba2f823a	-0.00066951255
172	0xbfd82c04	-1.6888433
173	0x39021694	0.00012406177
174	0xbac9b52d	-0.0015389078
175	0x380fd365	3.4290733e-05
176	0x3984bc44	0.0002531727
177	0xb9647de5	-0.00021790674
178	0x39ad7a90	0.00033088448
179	0xb8ca738d	-9.6536336e-05
180	0xbac51907	-0.0015037366
181	0x3916cc2d	0.00014381176
182	0x402beae4	2.6862116
183	0xba0074b9	-0.00049002055
184	0x389a2827	7.350771e-05
185	0x3e9424a7	0.28934214
186	0x395afd4e	0.00020884463
187	0xbb8db2aa	-0.004324277
188	0x39dcc189	0.00042105865
189	0x36aed91a	5.210878e-06
190	0xb8dc277f	-0.00010497774
191	0x383113af	4.221842e-05
192	0xba4fe8a0	-0.0007931087
193	0xb8bbce25	-8.955252e-05
194	0xb9047f40	-0.00012635905
195	0x39f04cc7	0.0004583357
196	0x3934aaa7	0.0001722971
197	0x3791ac37	1.736554e-05
198	0xba1a03f4	-0.0005875223
199	0xb9982626	-0.00029020122
200	0x388420e9	6.3003805e-05
201	0xb93f43e8	-0.00018240476
202	0xb9840252	-0.0002517873
203	0xb7888862	-1.6275972e-05
204	0xb84ee33c	-4.9325856e-05
205	0x3946c668	0.00018956664
206	0xb8dd542e	-0.00010553781
207	0x3937b1e3	0.00017518508
208	0x3ac84d1f	0.0015281773
209	0x39e82beb	0.0004428321
210	0xb776ecd7	-1.4717886e-05
211	0x3a4bb0f0	0.0007770201
212	0xbbb24028	-0.005439777
213	0xb78bd14b	-1.666755e-05
214	0xb95257ab	-0.0002005982
215	0x3cc1f5d1	0.023676785
216	0x3a3322b1	0.00068334775
217	0x3934078f	0.00017168953
218	0xbb274542	-0.0025523459
219	0x38f8cf65	0.00011864192
220	0xb949801c	-0.00019216578
221	0xb9d11ae2	-0.00039883616
222	0x393f9b7f	0.00018273106
223	0xbaef01b9	-0.0018234766
224	0xb8f22308	-0.00011545984
225	0xb8f21507	-0.00011543376
226	0x39869746	0.0002567118
227	0x37d321a2	2.5168822e-05
228	0x389b09b9	7.392787e-05
229	0x39102416	0.00013746353
230	0x390028e9	0.00012222271
231	0x388648b5	6.403161e-05
232	0xb92c6d1b	-0.00016443843
233	0xb9616e73	-0.00021498818
234	0xb8bca558	-8.995336e-05
235	0xb5fa536e	-1.8650733e-06
236	0xb8c4a9de	-9.3776485e-05
237	0x39476703	0.00019016494
238	0xb92b4ad9	-0.00016335714
239	0xb984afd0	-0.00025307992
240	0xb8eb7b9f	-0.000112286994
241	0xb82fd914	-4.192542e-05
242	0xb9b54d3c	-0.00034580554
243	0x391ca2bd	0.00014937944
244	0x3a328b7c	0.0006810946
245	0x3ad98982	0.0016596767
246	0xb9859059	-0.00025475284
247	0xb78bffea	-1.668926e-05
248	0x38b04127	8.4044696e-05
249	0x3a2d5b72	0.00066130527
250	0xb8eed20c	-0.00011387849
251	0xb9652f30	-0.0002185672
252	0xba57d2f9	-0.00082330365
253	0xb9d14b89	-0.00039919865
254	0xb8b501d7	-8.631095e-05
255	0x390db066	0.00013512521
